src/models/weights/AirQNet_10K.pth (torch, 54404 bytes, 26 tensors)

layers.0.weight f4 [30, 9]
-0.13874239 0.0026777184 -0.11486063 0.14161043 -0.28972405 0.14929573 -0.34499854 -0.20628627
-0.28380853 0.09303954 -0.15889817 0.12284398 -0.31833163 -0.20732011 -0.1687002 -0.13637531
-0.19925925 0.18599127 -0.044884432 0.13382958 0.17184572 0.012988886 0.14915113 0.4100261
-0.07900275 0.070127554 -0.047113013 0.20892449 0.17858715 -0.34754327 0.29569462 0.20231785
0.20097049 0.2689826 0.12047225 -0.009280582 -0.24968702 -0.064377144 -0.1825646 -0.00334843
-0.08485384 -0.17083266 -0.14384636 0.35027018 -0.05639417 0.015030571 -0.09153791 -0.08354511
0.20488454 0.23798235 0.16653796 0.16338806 -0.03274189 0.08515138 -0.0780948 -0.26661414
-0.22315922 0.21796557 -0.029673165 -0.2980005 -0.06818803 0.3012676 -0.34067035 -0.207097
-0.12588231 -0.0011753632 -0.06532781 -0.051764563 -0.3469205 0.14201917 0.31162003 0.18583687
-0.25590435 -0.26829413 0.1342603 -0.040326655 0.07762004 -0.29204714 -0.09417623 0.24928571
0.16517241 0.012962831 0.07745213 -0.026325451 -0.14285642 -0.16008797 -0.20643051 0.2782
0.18674482 0.095595695 -0.16472639 0.27829516 0.015511138 0.18938006 -0.045175914 0.14155504
0.45725158 0.08602716 0.29808554 -0.11369372 0.18085319 -0.21899486 0.012160742 -0.2565173
-0.124393575 -0.16658469 0.13048446 0.24151212 0.12932053 0.0045874435 0.21152085 -0.22070324
0.116026446 -0.058560364 -0.13354525 0.061598383 -0.25483406 0.011245053 0.13581958 0.26209423
-0.12110387 0.08237994 0.33272254 -0.13968131 0.34053 -0.15985565 0.10253315 0.090180546
-0.057355266 0.16556865 -0.087494105 0.102431715 0.070602655 -0.39508072 -0.07234873 -0.26225194
0.07386387 0.02231526 -0.010453576 -0.14524944 -0.05786413 -0.17742705 0.14128585 0.2604939
0.022786006 -0.10400632 -0.124821454 0.018287405 -0.24565499 -0.24924377 -0.3454181 -0.059452
-0.042336673 0.26152304 0.13334349 0.19214115 -0.2140605 0.102549344 -0.23478094 0.31498638
-0.060461678 0.3207286 -0.1549438 0.2635462 0.20967585 0.24232906 0.12483015 0.35734248
0.31596708 0.20451795 0.038373146 -0.20512255 0.01694904 0.1299276 -0.22597028 -0.20111428
-0.29510394 -0.20420803 0.28454956 0.04490595 2.7761816e-05 0.027746208 0.24391839 -0.3083776
-0.20441282 -0.10842611 -0.25723383 0.14360633 0.21280158 -0.30176094 -0.26785514 -0.2795854
0.09846117 0.24095719 -0.29333398 -0.24724738 0.112087384 -0.24789388 0.25222427 0.06370228
-0.11880582 0.00026891823 0.06965021 -0.14351603 -0.28220618 0.030676229 0.037352324 -0.007718077
-0.026961124 0.19662008 -0.15039031 -0.027534677 0.0731804 -0.25112787 0.088045895 -0.043973964
0.08416364 -0.19456683 0.021392163 0.04977355 -0.26294008 -0.29613268 0.07722501 -0.07495571
0.20476897 -0.20849437 -0.110294074 -0.24613956 0.19853817 -0.0072638714 -0.05341308 -0.031023279
-0.39408728 0.045223854 -0.04771554 -0.22313163 0.12214019 -0.010012101 -0.35395193 0.15092647
0.13591404 -0.04619406 -0.2588621 0.011681204 0.23913515 0.3020566 -0.25647438 -0.12640001
0.2549243 0.16061442 0.24991056 -0.14474876 0.22763827 -0.2676022 -0.026996892 0.01594563
00000000: 7c12 0ebe a97c 2f3b 0d3c ebbd 5302 113e
00000010: b656 94be fbe0 183e a6a3 b0be b53c 53be
00000020: 5a4f 91be 848b be3d 34b6 22be a095 fb3d
00000030: 5dfc a2be b94b 54be bfbf 2cbe f8a5 0bbe
00000040: 9e0a 4cbe 7f74 3e3e bdd8 37bd 9f0a 093e
00000050: 53f8 2f3e 56cf 543c 13bb 183e f1ee d13e
00000060: 32cc a1bd 099f 8f3d 93f9 40bd 4df0 553e
00000070: 8ddf 363e 31f1 b1be 4965 973e 692c 4f3e
00000080: 35cb 4d3e 16b8 893e 28ba f63d 950d 18bc
00000090: f4ad 7fbe 2ad8 83bd 37f2 3abe 5571 5bbb
000000a0: dac7 adbd c2ee 2ebe 764c 13be 9d56 b33e
000000b0: 93fd 66bd c942 763c 3a78 bbbd b319 abbd
000000c0: 41cd 513e a5b1 733e ed88 2a3e 334f 273e
000000d0: 5c1c 06bd d963 ae3d 2bf0 9fbd a681 88be
000000e0: da83 64be 5e32 5f3e 2315 f3bc 8693 98be
000000f0: 2aa6 8bbd bf3f 9a3e 586c aebe 3c11 54be
00000100: 4be7 00be a50e 9aba 96ca 85bd 1407 54bd
00000110: 909f b1be 796d 113e a98c 9f3e 054c 3e3e
00000120: e505 83be d95d 89be 887b 093e 902d 25bd
00000130: 41f7 9e3d 3487 95be 78df c0bd c144 7f3e
00000140: f522 293e 0e62 543c 399f 9e3d 79a8 d7bc
00000150: f448 12be 1aee 23be 8562 53be 3b70 8e3e
00000160: 093a 3f3e adc7 c33d 09ae 28be b47c 8e3e
00000170: 6e22 7e3c d9ec 413e 610a 39bd cef3 103e
00000180: e11c ea3e 022f b03d ab9e 983e 41d8 e8bd
00000190: 9431 393e 3040 60be d93d 473c 3c56 83be
000001a0: 0fc2 febd 2d95 2abe b89d 053e f44e 773e
000001b0: 9a6c 043e 4452 963b ec98 583e 0800 62be
000001c0: 469f ed3d fedc 6fbd 16c0 08be 964e 7c3d
000001d0: 9c79 82be 2c3d 383c 4a14 0b3e 3731 863e
000001e0: 4e05 f8bd d0b6 a83d 9c5a aa3e 9e08 0fbe
000001f0: f359 ae3e 33b1 23be e6fc d13d 94b0 b83d
00000200: 5bed 6abd d48a 293e 1c30 b3bd b8c7 d13d
00000210: 2098 903d 0548 cabe 922b 94bd e345 86be
00000220: f145 973d 7ece b63c 7a45 2bbc 45bc 14be
00000230: f002 6dbd 70af 35be 3dad 103e 755f 853e
00000240: b8a9 ba3c 4401 d5bd 64a2 ffbd 78cf 953c
00000250: fb8c 7bbe c239 7fbe a4da b0be f183 73bd
00000260: 3869 2dbd 59e6 853e 328b 083e a6c0 443e
00000270: ad32 5bbe 6405 d23d 6a6a 70be e545 a13e
00000280: aaa6 77bd 8a36 a43e 96a9 1ebe 87ef 863e
00000290: 44b5 563e 1c25 783e f3a6 ff3d 98f5 b63e
000002a0: 70c6 a13e 276d 513e 292d 1d3d a50b 52be
000002b0: b7d8 8a3c be0b 053e c164 67be e7f0 4dbe
000002c0: dd17 97be e91b 51be 7bb0 913e 4def 373d
000002d0: 0ce2 e837 044c e33c bec5 793e abe3 9dbe
000002e0: 9851 51be 820e debd 27b4 83be 8a0d 133e
000002f0: a8e8 593e 6980 9abe 4f24 89be d125 8fbe
00000300: 03a6 c93d 7bbd 763e df2f 96be 6b2e 7dbe
00000310: 128e e53d e5d7 7dbe 8a23 813e 5776 823d
00000320: 7750 f3bd 98fd 8c39 c5a4 8e3d def5 12be
00000330: 547d 90be b74c fb3c c0fe 183d ece7 fcbb
00000340: 93dd dcbc c656 493e ebff 19be 6790 e1bc
00000350: 9bdf 953d d593 80be 6851 b43d 0b1e 34bd
00000360: fd5d ac3d 873c 47be 9e3e af3c 5adf 4b3d
00000370: 15a0 86be b49e 97be 2528 9e3d 6182 99bd
00000380: f5ae 513e 8c7f 55be dce1 e1bd 020c 7cbe
00000390: 974d 4b3e c505 eebb acc7 5abd 8824 febc
000003a0: cfc5 c9be a63c 393d 5f71 43bd 9e7c 64be
000003b0: a324 fa3d cc09 24bc 3039 b5be 788c 1a3e
000003c0: 0d2d 0b3e fc35 3dbd 9389 84be 8562 3f3c
000003d0: d8df 743e 2aa7 9a3e 9c50 83be 016f 01be
000003e0: 7085 823e 1b78 243e 8ee8 7f3e 0539 14be
000003f0: 021a 693e 2803 89be 9628 ddbc 69a0 823c

layers.0.bias f4 [30]
-0.12174883 0.17333855 0.104325555 -0.086243056 -0.09261054 -0.2970727 -0.09147572 -0.13824822
-0.18118055 -0.30072424 0.26433074 -0.2992436 0.33112162 -0.17361616 -0.013913833 0.27180558
0.11379094 -0.098060764 -0.26876786 -0.14062199 0.27102208 -0.12681057 0.2781084 -0.062182844
-0.04607845 0.12415115 -0.047254782 -0.0028781684 0.23174454 0.11029214
00000000: 7357 f9bd a97f 313e a3a8 d53d 33a0 b0bd
00000010: 98aa bdbd ea19 98be 9f57 bbbd f190 0dbe
00000020: 6587 39be 87f8 99be 5c56 873e 7536 99be
00000030: c688 a93e 6fc8 31be d8f6 63bc 1a2a 8b3e
00000040: 390b e93d 15d4 c8bd f19b 89be 36ff 0fbe
00000050: 68c3 8a3e a1da 01be 3964 8e3e 70b3 7ebd
00000060: c2bc 3cbd f542 fe3d 3b8e 41bd a79f 3cbb
00000070: 714e 6d3e d8e0 e13d

layers.1.weight f4 [30]
0.96899813 0.91372484 0.92581916 1.1275645 1.0314487 1.0933297 1.0016509 1.0010768
0.98476595 0.9342556 0.978916 0.9542161 0.9533178 0.9243382 1.0868317 0.9651034
1.0671544 1.001085 0.99177784 1.0802097 1.0795586 1.0289781 0.88393414 1.1010549
0.8814844 1.0149059 0.91531485 0.91543293 0.9681583 0.8671216
00000000: 4310 783f dfe9 693f 7c02 6d3f 0954 903f
00000010: 8306 843f 3af2 8b3f 1936 803f 4923 803f
00000020: 9f19 7c3f 602b 6f3f 3d9a 7a3f 8247 743f
00000030: a30c 743f 6ea1 6c3f 4d1d 8b3f 0411 773f
00000040: 8498 883f 8e23 803f 27e5 7d3f 5044 8a3f
00000050: fa2e 8a3f 8eb5 833f 8249 623f 5eef 8c3f
00000060: f6a8 613f 70e8 813f 1352 6a3f d059 6a3f
00000070: 39d9 773f aefb 5d3f

layers.1.bias f4 [30]
-0.024056034 -0.03164753 -0.014832867 0.08064721 0.0031692213 0.019854262 0.024961602 0.034684807
0.03572109 -0.063004255 0.0055038137 -0.016671764 0.0019921844 -0.0041157464 -0.0040427996 0.030224582
0.005842101 -0.034365077 0.03311573 -0.026157148 0.04373535 -0.001090607 -0.064250045 0.03575978
-0.0849313 -0.0024598283 -0.041589003 -0.043057416 -0.021632401 -0.039526276
00000000: 2911 c5bc d7a0 01bd 8e05 73bc 5d2a a53d
00000010: b6b2 4f3b 68a5 a23c 467c cc3c a811 0e3d
00000020: 4750 123d 6008 81bd 5659 b43b 3993 88bc
00000030: 4f8f 023b 62dd 86bb 7679 84bb 8b99 f73c
00000040: 186f bf3b 65c2 0cbd 5ca4 073d 8447 d6bc
00000050: d723 333d b3f2 8eba 8795 83bd d978 123d
00000060: 76f0 adbd 1235 21bb 3b59 2abd f95c 30bd
00000070: 6f36 b1bc 4ee6 21bd

layers.1.running_mean f4 [30]
-0.14784631 0.1688289 0.11239039 -0.06284009 -0.08897024 -0.29157317 -0.10367709 -0.13326785
-0.18537043 -0.28949413 0.27531075 -0.29043886 0.3306811 -0.15857105 -0.030168228 0.27353746
0.09939042 -0.08166424 -0.26092014 -0.14159726 0.27773938 -0.13971879 0.28737637 -0.06229096
-0.05723478 0.102495685 -0.06740083 0.010220623 0.24132605 0.10778013
00000000: 0665 17be 7ce1 2c3e ef2c e63d 4eb2 80bd
00000010: 0736 b6bd 1449 95be a754 d4bd 5e77 08be
00000020: bfd1 3dbe 9338 94be 88f5 8c3e 67b4 94be
00000030: 084f a93e 7360 22be 5c23 f7bc 1a0d 8c3e
00000040: 348d cb3d 953f a7bd 5397 85be dffe 10be
00000050: db33 8e3e 7112 0fbe ff22 933e ce24 7fbd
00000060: 046f 6abd 42e9 d13d 7209 8abd 6674 273c
00000070: 2d1e 773e d4bb dc3d

layers.1.running_var f4 [30]
0.4935535 0.19418912 0.2681536 0.6825695 1.0254892 0.39112154 1.1511732 0.45394778
0.5863874 0.09820809 0.8352162 0.32137117 0.11209228 0.15625459 0.37073228 0.2662831
0.6930449 0.7082536 0.9187631 1.0691013 0.3109329 1.2044932 0.080980524 0.13026664
0.15194263 0.09905443 0.26112074 0.1293891 0.34515163 0.31170735
00000000: 0bb3 fc3e 83d9 463e 6e4b 893e e0bc 2e3f
00000010: 3b43 833f 1541 c83e a559 933f d86b e83e
00000020: 7c1d 163f 5321 c93d bbd0 553f c38a a43e
00000030: a390 e53d 3401 203e 9fd0 bd3e 4256 883e
00000040: 646b 313f 1c50 353f 0f34 6b3f 50d8 883f
00000050: 9932 9f3e d52c 9a3f 1ed9 a53d 9e64 053e
00000060: d996 1b3e 0ddd ca3d 9eb1 853e 947e 043e
00000070: b7b7 b03e 1b98 9f3e

layers.3.weight f4 [128, 30]
-0.013903197 0.10110252 0.1085625 0.1764247 -0.037469644 0.16096264 -0.0009882377 -0.10468444
-0.049237367 0.13296528 0.04276147 0.08681968 -0.11783678 0.10653006 0.0020032828 0.0051175943
-0.096229956 -0.015373669 0.06736751 -0.039785106 -0.14061733 -0.03717698 0.13330877 0.06708808
0.1377939 -0.07325458 0.09574896 0.022039007 -0.08252415 -0.043223977 0.043249987 -0.0726303
-0.05254849 0.15272902 -0.06082105 0.004193709 -0.14427073 -0.12703447 0.15726335 0.043303303
-0.02221066 0.09287239 -0.10202093 -0.15621361 -0.16614123 0.061083082 -0.09706194 0.10349198
0.167777 0.010414106 0.11987593 -0.062757656 0.1630323 -0.13811472 -0.010605732 0.1576682
-0.09947027 0.13505228 0.05355691 0.012954538 0.12774111 0.15259719 -0.08677558 0.005305865
0.022621887 0.13941683 0.0837466 0.15039393 0.11496275 -0.18092872 0.108894296 -0.04190264
0.14197227 0.081941426 -0.12698616 -0.013825494 0.04259482 0.04188581 -0.19499892 0.029745555
0.13019074 0.10298018 0.082595795 0.06566947 -0.16291898 0.07299911 -0.15753932 -0.12731567
-0.035189353 0.013914039 0.088169105 0.017645879 -0.13371505 -0.026994241 0.08584577 -0.11264053
-0.1264984 0.11333263 -0.073993206 -0.11250255 0.12710322 -0.11691281 -0.12742917 0.07045104
-0.11160506 -0.015090159 0.25652942 -0.07133298 0.1309445 0.19686742 0.17966275 0.12591982
-0.06046353 0.13569517 -0.098983884 -0.103271924 -0.09595638 0.020915093 0.016049195 0.079616785
0.12197854 0.0161458 0.11292718 -0.13644199 -0.18815562 -0.14899415 0.106117666 0.14508009
-0.06432123 0.05884679 -0.09934567 -0.02657132 0.041066714 -0.055865783 -0.085930094 0.09789195
-0.015679607 -0.009572816 0.15699908 -0.16435495 0.0835397 0.1649338 -0.037130546 -0.20621507
0.018519849 -0.11878748 0.047899786 -0.1452893 -0.12902169 0.076563485 -0.008738533 -0.11535991
0.05340337 0.12656902 0.038639713 0.18606587 -0.049581025 0.17945419 -0.12139455 0.16783476
0.1356031 -0.15416837 -0.010730541 -0.10776594 0.24057183 -0.03899084 0.12263567 0.1646979
-0.15756193 0.12284348 -0.16666609 -0.026998943 -0.0649659 -0.17013496 -0.13523611 -0.06275011
-0.075262964 -0.0977147 -0.008944206 0.083608165 -0.06171596 -0.1445722 -0.1415254 0.097233765
-0.16650471 -0.12137724 -0.1582276 0.14338787 0.15249708 0.042705353 -0.11392301 -0.017005026
-0.03138515 0.06667377 -0.016812695 -0.056007016 -0.0031018837 -0.036966346 -0.0090922555 0.08062553
-0.054566134 -0.006990776 -0.015581209 0.052675042 -0.07835727 -0.12188603 -0.12888429 0.06890283
0.17710444 0.1785429 0.040313285 -0.0474927 0.04817162 -0.13489975 0.061412275 -0.02575037
0.0043017855 0.11217458 -0.04774795 -0.13780929 0.015205718 -0.046872113 -0.035837505 -0.06661973
-0.08912801 0.124560975 0.06687613 -0.07431666 0.1144643 0.0980053 0.16448529 0.18068603
0.1822581 0.025548114 -0.01238966 -0.15973501 0.13067581 0.052938577 -0.04485313 0.023987342
0.12957726 0.09484155 0.038403355 0.24878214 -0.03167846 0.08074827 0.0076878564 -0.18420139
0.042954277 -0.0005517951 0.010514782 -0.011597011 0.08803957 -0.017918445 -0.14885567 0.1218457
00000000: 3cca 63bc d70e cf3d 0456 de3d ada8 343e
00000010: c579 19bd 64d3 243e c187 81ba cc64 d6bd
00000020: 1fad 49bd 0d28 083e a726 2f3d 84ce b13d
00000030: 6954 f1bd 6f2c da3d 8249 033b 7eb1 a73b
00000040: 3614 c5bd d7e1 7bbc faf7 893d b5f5 22bd
00000050: fdfd 0fbe e446 18bd 1882 083e 7a65 893d
00000060: d819 0d3e 7f06 96bd 0818 c43d 268b b43c
00000070: 6c02 a9bd a00b 31bd e626 313d 32bf 94bd
00000080: 163d 57bd ff64 1c3e 7e1f 79bd 626b 893b
00000090: b5bb 13be 5315 02be a509 213e ce5e 313d
000000a0: 21f3 b5bc e133 be3d 59f0 d0bd 76f6 1fbe
000000b0: ed20 2abe 4132 7a3d 69c8 c6bd 9af3 d33d
000000c0: bccd 2b3e ed9f 2a3c 8381 f53d 1687 80bd
000000d0: f0f1 263e f26d 0dbe aac3 2dbc c673 213e
000000e0: 12b7 cbbd 254b 0a3e 7e5e 5b3d 453f 543c
000000f0: 91ce 023e 7042 1c3e 65b7 b1bd d2dc ad3b
00000100: 8951 b93c 49c3 0e3e 5683 ab3d de00 1a3e
00000110: 9771 eb3d 6145 39be f903 df3d 1aa2 2bbd
00000120: 2e61 113e e8d0 a73d a908 02be 5384 62bc
00000130: e877 2e3d 7590 2b3d ccad 47be f3ac f33c
00000140: b950 053e 46e7 d23d fc27 a93d b77d 863d
00000150: 3cd4 26be 8f80 953d fd51 21be 0a5f 02be
00000160: b622 10bd b6f7 633c 0192 b43d 178e 903c
00000170: 99ec 08be 0723 ddbc e8cf af3d 14b0 e6bd
00000180: cc88 01be f01a e83d c089 97bd bd67 e6bd
00000190: 5927 023e fc6f efbd cb7c 02be a348 903d
000001a0: 3291 e4bd b73c 77bc d357 833e 0717 92bd
000001b0: 5116 063e 9d97 493e 83f9 373e 20f1 003e
000001c0: 9ba8 77bd adf3 0a3e 10b8 cabd 3b80 d3bd
000001d0: c784 c4bd 2156 ab3c 9a79 833c 200e a33d
000001e0: e3cf f93d 3244 843c 5e46 e73d 73b7 0bbe
000001f0: deab 40be ec91 18be 3854 d93d e08f 143e
00000200: d9ba 83bd 5509 713d be75 cbbd 19ac d9bc
00000210: 9235 283d 85d3 64bd 1efc afbd 937b c83d
00000220: 8572 80bc 4dd7 1cbc 5ec4 203e aa4c 28be
00000230: dd16 ab3d 68e4 283e 3316 18bd 0b2a 53be
00000240: f0b6 973c da46 f3bd 9132 443d b8c6 14be
00000250: 431e 04be 51cd 9c3d 102c 0fbc d141 ecbd
00000260: 7ebd 5a3d 4f9b 013e ad44 1e3d 0d88 3e3e
00000270: 7915 4bbd d7c2 373e b59d f8bd e0dc 2b3e
00000280: 8adb 0a3e 50de 1dbe 27cf 2fbc 64b4 dcbd
00000290: 7658 763e dcb4 1fbd 6928 fb3d 91a6 283e
000002a0: ea57 21be 5d95 fb3d 84aa 2abe e32c ddbc
000002b0: d70c 85bd dc37 2ebe 567b 0abe 2183 80bd
000002c0: 7823 9abd a51e c8bd b88a 12bc c23a ab3d
000002d0: e0c9 7cbd bc0a 14be 09ec 10be 7f22 c73d
000002e0: 3680 2abe a194 f8bd 6a06 22be 45d4 123e
000002f0: 3228 1c3e cfeb 2e3d 7850 e9bd 204e 8bbc
00000300: b78d 00bd 428c 883d c7ba 89bc 9d67 65bd
00000310: f948 4bbb 066a 17bd aff7 14bc ff1e a53d
00000320: bd80 5fbd e112 e5bb 5448 7fbc c9c1 573d
00000330: c779 a0bd 629f f9bd 3efa 03be ed1c 8d3d
00000340: de5a 353e f3d3 363e 8b1f 253d b587 42bd
00000350: 9b4f 453d 2923 0abe 708b 7b3d 71f2 d2bc
00000360: fef5 8c3b c9bb e53d 5b93 43bd e11d 0dbe
00000370: 6721 793c f9fc 3fbd 59ca 12bd ed6f 88bd
00000380: bf88 b6bd d319 ff3d 5af6 883d 5533 98bd
00000390: 426c ea3d 01b7 c83d d56e 283e c205 393e
000003a0: dea1 3a3e 474a d13c 00fe 4abc 9391 23be
000003b0: e1cf 053e 1fd6 583d eab7 37bd 1a81 c43c
000003c0: e7af 043e 493c c23d d64c 1d3d bfc0 7e3e
000003d0: 46c1 01bd 595f a53d 6aea fb3b 4a9f 3cbe
000003e0: d3f0 2f3d 58a6 10ba 3146 2c3c 6401 3ebc
000003f0: 174e b43d b4c9 92bc 9f6d 18be 3d8a f93d

layers.3.bias f4 [128]
-0.0049747466 -0.10890936 -0.15170372 -0.1426952 -0.16164705 -0.08613143 -0.10944651 -0.05740916
-0.0050399294 0.04581179 0.14619282 -0.10364077 0.012329199 0.033943433 -0.103428066 0.061617102
-0.15583535 -0.17295827 0.020560708 -0.13110933 0.09355604 -0.04063469 0.17651679 -0.08241407
-0.077496566 0.07843379 0.03319242 0.066417985 0.051454205 -0.04964403 0.10912814 0.1085237
-0.07967531 0.039728604 0.049403735 -0.11398359 -0.043198097 -0.17774105 -0.07884442 -0.03727531
-0.088016056 0.05027901 0.14759524 -0.022451641 -0.16902193 0.1310049 -0.023675278 0.13673154
-0.051577352 -0.13089474 -0.042566266 0.033036135 0.08290825 0.15843078 0.047954004 0.06401696
-0.07003353 -0.01279304 0.05285879 0.015377598 0.13993779 0.094332755 0.02730777 0.15827842
-0.14698234 0.12332321 0.09649434 -0.09710121 0.11448548 0.013233454 0.025458133 -0.06688576
-0.022936378 -0.16687848 0.11164401 -0.18023314 0.09618074 0.16160223 0.16103041 0.1706802
-0.049011055 -0.1568941 0.043802623 0.048367485 0.049312316 -0.113518596 0.14363992 0.124257766
-0.048696943 -0.05267177 -0.018724052 0.061562218 -0.10421457 -0.15290082 -0.042552136 -0.092179894
-0.15307885 -0.10956104 0.0031532857 -0.006146142 -0.079777434 -0.058322806 0.03405402 0.15382424
-0.09755124 0.117047 -0.12375048 -0.04128909 0.16549128 -0.070414424 -0.13689682 -0.0852111
0.16151014 -0.16220687 -0.04638042 -0.11570404 0.011356266 0.09451323 0.1773913 0.10284251
-0.10085853 -0.050376546 0.14380851 -0.16719535 0.08825752 -0.17518046 -0.060245976 0.009139524
00000000: 3303 a3bb df0b dfbd 3858 1bbe b11e 12be
00000010: ce86 25be ad65 b0bd 7e25 e0bd de25 6bbd
00000020: fe25 a5bb 25a5 3b3d 92b3 153e 9d41 d4bd
00000030: 6900 4a3c 4508 0b3d 18d2 d3bd 3762 7c3d
00000040: 4d93 1fbe f91b 31be ee6e a83c 8641 06be
00000050: 4f9a bf3d 9070 26bd d1c0 343e b5c8 a8bd
00000060: 85b6 9ebd e5a1 a03d c6f4 073d 2706 883d
00000070: a5c1 523d 8a57 4bbd 937e df3d ac41 de3d
00000080: cf2c a3bd 76ba 223d 925b 4a3d 3a70 e9bd
00000090: 7df0 30bd c001 36be 2f79 a1bd ffad 18bd
000000a0: c341 b4bd 5df1 4d3d 3523 173e 81ec b7bc
000000b0: 1614 2dbe 2626 063e a8f2 c1bc 5a03 0c3e
000000c0: c642 53bd 4509 06be f759 2ebd e650 073d
000000d0: cdcb a93d ae3b 223e 6b6b 443d 531b 833d
000000e0: bd6d 8fbd e699 51bc 7582 583d 52f2 7b3c
000000f0: da4b 0f3e 8831 c13d 8bb4 df3c bd13 223e
00000100: 8a82 16be e190 fc3d d39e c53d 00dd c6bd
00000110: 5d77 ea3d 21d1 583c 938d d03c 67fb 88bd
00000120: 12e5 bbbc 31e2 2abe 9da5 e43d 098f 38be
00000130: 68fa c43d 0e7b 253e 28e5 243e cac6 2e3e
00000140: d1bf 48bd d9a8 20be 616a 333d fc1c 463d
00000150: b6fb 493d 707c e8bd 5816 133e db7a fe3d
00000160: 7276 47bd 5bbe 57bd 2f63 99bc aa28 7c3d
00000170: 736e d5bd 0892 1cbe 264b 2ebd d0c8 bcbd
00000180: b4c0 1cbe 8a61 e0bd 5ba7 4e3b 9365 c9bb
00000190: 5a62 a3bd e5e3 6ebd 3a7c 0b3d 1a84 1d3e
000001a0: f2c8 c7bd 56b6 ef3d e470 fdbd c01e 29bd
000001b0: 8c76 293e 7035 90bd ae2e 0cbe 2883 aebd
000001c0: ea62 253e 8f19 26be 65f9 3dbd 3df6 ecbd
000001d0: a20f 3a3c 2790 c13d 11a6 353e 189f d23d
000001e0: eb8e cebd a357 4ebd 8a42 133e 4235 2bbe
000001f0: 5cc0 b43d 8262 33be 7cc4 76bd f1bd 153c

layers.4.weight f4 [128]
1.0061969 0.9722066 0.99309254 1.0475265 0.9969821 0.9865522 0.9824184 1.0358566
0.9525516 0.97378063 0.9929812 1.0328333 1.0234785 1.0179052 0.9921158 0.9871127
0.98218346 0.9914828 1.0251671 1.0279849 0.99403095 0.97500217 0.9753734 0.9819217
0.95704573 0.9565743 1.0167098 0.99788225 0.96839607 1.0006859 1.0085378 1.0014327
1.0115387 1.0077107 0.9981002 0.9961577 0.97401434 1.0129566 1.0206652 0.94456756
0.98301584 0.9873921 0.9608473 1.1244899 1.0280124 0.97887176 1.0288948 1.0232627
1.00482 0.98112506 0.94854057 0.9955614 1.0200689 1.013958 1.0345247 0.9948508
1.0569745 1.0082232 0.97919947 1.0144688 0.9643427 0.98384833 0.99779296 1.0038136
1.0185875 1.0098997 1.0299966 0.958932 1.0304483 0.9849073 1.0456287 1.0051937
0.99081 0.99467945 0.9836479 0.93235976 1.0059958 0.966992 1.0504935 1.0055647
1.0067039 0.9945135 0.942625 1.0479859 1.0002207 0.966983 1.0201604 1.0036201
0.9515866 0.9604926 0.9787665 1.0257922 0.95555896 0.97724783 0.9429545 1.0268521
1.0179249 0.9796986 0.9347301 1.0197787 1.013985 0.95032406 0.96210134 0.9533164
0.99931955 0.9486594 1.0221527 0.98018235 0.97739935 0.96013606 1.0292957 1.0690417
0.99769783 1.0257628 1.0445863 1.0026786 0.97331464 1.023959 0.98657835 1.0016541
1.0692987 0.98547363 1.0172708 0.9675043 1.0139296 1.0522741 1.0665973 0.9914136
00000000: 0fcb 803f 88e2 783f 503b 7e3f 5915 863f
00000010: 383a 7f3f af8e 7c3f c67f 7b3f f396 843f
00000020: 6cda 733f b049 793f 0434 7e3f e233 843f
00000030: 5801 833f b84a 823f 4dfb 7d3f 6bb3 7c3f
00000040: 6070 7b3f d1d1 7d3f ad38 833f 0295 833f
00000050: d078 7e3f be99 793f 12b2 793f 385f 7b3f
00000060: f300 753f 0ee2 743f 8c23 823f 3675 7f3f
00000070: cee8 773f 7a16 803f c417 813f f22e 803f
00000080: 1a7a 813f aafc 803f 7f83 7f3f 3104 7f3f
00000090: 0159 793f 90a8 813f 28a5 823f 2ecf 713f
000000a0: eda6 7b3f bbc5 7c3f 17fa 753f 49ef 8f3f
000000b0: e995 833f 5797 7a3f d3b2 833f 46fa 823f
000000c0: f19d 803f 032b 7b3f 8ed3 723f 1ddd 7e3f
000000d0: 9e91 823f 60c9 813f 4e6b 843f 8bae 7e3f
000000e0: f14a 873f 750d 813f d1ac 7a3f 1dda 813f
000000f0: 2adf 763f 7cdd 7b3f 5c6f 7f3f f77c 803f
00000100: 1361 823f 6544 813f eed6 833f 917c 753f
00000110: bbe5 833f e322 7c3f 29d7 853f 30aa 803f
00000120: b9a5 7d3f 50a3 7e3f 59d0 7b3f 21af 6e3f
00000130: 78c4 803f ca8c 773f 9276 863f 58b6 803f
00000140: acdb 803f 7098 7e3f df4f 713f 6724 863f
00000150: 3b07 803f 338c 773f 9e94 823f a076 803f
00000160: 2e9b 733f d8e2 753f 7190 7a3f 294d 833f
00000170: 839f 743f ea2c 7a3f 7765 713f e46f 833f
00000180: 5d4b 823f 87cd 7a3f 794a 6f3f 1c88 823f
00000190: 43ca 813f 7048 733f 464c 763f 8b0c 743f
000001a0: 68d3 7f3f 58db 723f e6d5 823f 3bed 7a3f
000001b0: d836 7a3f 7acb 753f f6bf 833f 5cd6 883f
000001c0: 2069 7f3f 324c 833f 01b5 853f c657 803f
000001d0: 262b 793f 1711 833f 6690 7c3f 3436 803f
000001e0: c8de 883f 0048 7c3f ee35 823f 5dae 773f
000001f0: 72c8 813f ebb0 863f 4386 883f 48cd 7d3f

layers.4.bias f4 [128]
-0.03980058 -0.021282826 -0.030803576 0.026655858 -0.033920255 -0.03495857 -0.061408516 -0.0592146
-0.018664252 -0.034641705 -0.018515637 0.021779407 -0.017895177 -0.0023472325 -0.041847244 -0.03917257
-0.09003664 -0.05647022 -0.013930102 0.0065061077 -0.0076453174 -0.0032142007 -0.022494256 -0.0041853944
-0.05210125 -0.04896338 0.002523321 0.0029793612 -0.013327901 -0.0026776923 -0.008586963 -0.037679136
-0.04716063 0.0027046334 -0.045552738 -0.0447233 -0.048302133 0.016867377 -0.055954665 -0.05750122
-0.021983389 -0.014340935 -0.059448756 0.030135615 0.007763576 -0.021561023 -0.0029254695 -0.028306296
-0.03171996 -0.026262406 -0.03815972 -0.033107907 -0.004233365 0.012981651 -0.023876805 -0.025387047
-0.04222806 -0.0057967547 -0.042566583 -0.06052543 -0.043898012 -0.0077452864 -0.04044806 -0.026860125
-0.019538444 -0.014295425 0.032809705 -0.048788123 0.009971752 -0.01845204 0.03212432 -0.06908745
-0.032101177 -0.022051154 -0.015644455 -0.050518855 -0.005001069 -0.06687049 -0.020530388 -0.03021203
-0.013032296 -0.012294903 -0.05759656 -0.026571432 -0.018272737 -0.044942774 -0.0038920084 -0.03266271
-0.037111707 -0.01148864 -0.023412473 -0.019108223 -0.033588767 -0.0340275 -0.0672809 -0.0005370791
-0.06110696 -0.072064355 -0.054177113 -0.011366326 0.0018964099 -0.021679282 -0.028820876 -0.053490277
-0.061260436 -0.04503318 -0.03781839 -0.014715924 -0.023660574 -0.031000366 -0.004936074 -0.02784462
-0.060387783 -0.009939318 -0.0359786 -0.012489861 -0.06307236 0.008138045 -0.06739025 -0.05114733
-0.010053632 -0.07807123 -0.020227682 -0.05669905 -0.0035484217 0.042851187 0.015382573 -0.02674619
00000000: ef05 23bd 5259 aebc c857 fcbc 635d da3c
00000010: f7ef 0abd b830 0fbd 7f87 7bbd 028b 72bd
00000020: c6e5 98bc 76e4 0dbd 1bae 97bc ba6a b23c
00000030: e898 92bc 07d4 19bb 0468 2bbd 6b73 20bd
00000040: 2165 b8bd 514d 67bd 153b 64bc 3031 d53b
00000050: 9285 fabb 57a5 52bb e045 b8bc a225 89bb
00000060: 1f68 55bd d38d 48bd 4d5e 253b 6341 433b
00000070: 455d 5abc 397c 2fbb 55b0 0cbc 7055 1abd
00000080: 812b 41bd 3840 313b 8295 3abd c72f 37bd
00000090: 75d8 45bd 742d 8a3c b830 65bd 6686 6bbd
000000a0: 8216 b4bc 3ef6 6abc 8a80 73bd f7de f63c
000000b0: 9965 fe3b bea0 b0bc 3cb9 3fbb 9be2 e7bc
000000c0: caec 01bd 4224 d7bc 5e4d 1cbd 289c 07bd
000000d0: 0ab8 8abb feb0 543c 4a99 c3bc 7ff8 cfbc
000000e0: 55f7 2cbd b4f2 bdbb 4c5a 2ebd 83e9 77bd
000000f0: 67ce 33bd 2ccc fdbb ddac 25bd c409 dcbc
00000100: 160f a0bc 5c37 6abc 7863 063d 0ed6 47bd
00000110: 8f60 233c bc28 97bc ca94 033d b97d 8dbd
00000120: 867c 03bd 9fa4 b4bc cd28 80bc dcec 4ebd
00000130: 02e0 a3bb 65f3 88bd 582f a8bc 387f f7bc
00000140: 6985 55bc 9070 49bc 5fea 6bbd 55ac d9bc
00000150: b5b0 95bc ea15 38bd 1111 7fbb 55c9 05bd
00000160: 7202 18bd d93a 3cbc 84cb bfbc d988 9cbc
00000170: 6094 09bd 6b60 0bbd 92ca 89bd c5ca 0cba
00000180: 4b4b 7abd 7a96 93bd d2e8 5dbd d439 3abc
00000190: f590 f83a c098 b1bc c219 ecbc 9f18 5bbd
000001a0: 39ec 7abd b674 38bd 75e7 1abd 0f1b 71bc
000001b0: d2d3 c1bc 7bf4 fdbc cabe a1bb 671a e4bc
000001c0: 2e59 77bd 85d8 22bc 4c5e 13bd 46a2 4cbc
000001d0: 152c 81bd 6f55 053c e603 8abd dd7f 51bd
000001e0: fdb7 24bc cfe3 9fbd 86b4 a5bc 433d 68bd
000001f0: a38c 68bb ba84 2f3d 3007 7c3c d31a dbbc

layers.4.running_mean f4 [128]
0.19276783 -0.062203586 0.13470656 0.014291775 -0.35935268 -0.020795612 -0.27540195 0.15141435
0.23601738 -0.21418256 0.26414427 -0.043440383 0.14434941 -0.21065676 -0.3227961 0.22937343
0.24602146 -0.0853513 0.60570794 -0.49216095 -0.2639454 -0.1270182 0.44816685 -0.32318905
0.36398846 0.14582013 0.099230535 0.23793633 0.082721405 -0.15761125 0.24440941 -0.16011082
0.15866952 0.10668182 0.07729725 0.21469176 0.5101361 -0.23004729 0.6162976 -0.28992766
-0.00060169003 -0.169238 0.16712992 0.10836375 -0.44941095 0.56262136 0.15674321 0.14958209
0.16249363 -0.21469754 0.06652666 -0.27280217 -0.18642865 0.1760818 0.3216266 -0.05431213
0.582007 -0.02643903 0.12681548 0.28519526 0.09643474 -0.15999131 -0.03434592 0.17974502
0.23196617 0.5482306 0.2952592 -0.09711198 0.42613682 0.15343308 0.15877494 0.43147966
-0.1372595 0.41555035 0.34910312 -0.38130388 0.12663254 0.33602068 0.33378255 -0.4178852
0.07630275 -0.24694183 -0.1657455 0.5624529 0.16269869 0.026101649 0.49511492 0.7032123
-0.11893581 -0.39340687 0.3000983 0.2613454 -0.5822721 -0.5514086 -0.16502208 -0.15901455
0.105046734 0.0984532 0.032227956 0.15706743 0.058673628 -0.8083875 -0.04844413 -0.44583228
0.08281526 -0.14917085 0.17308906 -0.08284945 0.20821598 0.035080697 0.055746436 0.035475936
0.40468922 0.10723548 0.44639966 -0.46097648 -0.36227188 0.15110601 0.27354956 0.18244198
-0.016343642 0.11017554 -0.031192046 -0.032754008 0.412691 -0.49162155 0.12058332 -0.42034107
00000000: ee64 453e 30c9 7ebd 84f0 093e 0d28 6a3c
00000010: 13fd b7be 8f5b aabc 7c01 8dbe 5d0c 1b3e
00000020: 8aae 713e ac52 5bbe eb3d 873e 8bee 31bd
00000030: 55d0 133e 68b6 57be 8845 a5be dee0 6a3e
00000040: 0ded 7b3e aacc aebd ad0f 1b3f 85fc fbbe
00000050: da23 87be 0f11 02be 2076 e53e 0979 a5be
00000060: b25c ba3e df51 153e 6139 cb3d 95a5 733e
00000070: d769 a93d d864 21be 7646 7a3e 17f4 23be
00000080: 437a 223e ff7b da3d 054e 9e3d 28d8 5b3e
00000090: 4898 023f 8491 6bbe aec5 1d3f 6671 94be
000000a0: bcba 1dba ba4c 2dbe 1b24 2b3e d0ed dd3d
000000b0: 3119 e6be f407 103f 4b81 203e 0c2c 193e
000000c0: bb64 263e acd9 5bbe 213f 883d baac 8bbe
000000d0: 27e7 3ebe ca4e 343e 3eac a43e 6576 5ebd
000000e0: 69fe 143f aa96 d8bc ebdb 013e 1d05 923e
000000f0: 947f c53d c3d4 23be 4fae 0cbd 140f 383e
00000100: 8a88 6d3e d758 0c3f 372c 973e a5e2 c6bd
00000110: 9b2e da3e 901d 1d3e e695 223e e7ea dc3e
00000120: c18d 0cbe 04c3 d43e a5bd b23e 433a c3be
00000130: f6ab 013e e70a ac3e 8ce5 aa3e 0df5 d5be
00000140: 9e44 9c3d 52de 7cbe 30b9 29be eafc 0f3f
00000150: 7c9a 263e 20d3 d53c b47f fd3e b905 343f
00000160: 9e94 f3bd a06c c9be 7ca6 993e 10cf 853e
00000170: c90f 15bf 1d29 0dbf 8cfb 28be b6d4 22be
00000180: be22 d73d d5a1 c93d 7601 043d 49d6 203e
00000190: c253 703d 7cf2 4ebf 5a6d 46bd 2144 e4be
000001a0: 0c9b a93d 3ec0 18be 423e 313e f9ac a9bd
000001b0: 9236 553e c7b0 0f3d 6056 643d 374f 113d
000001c0: 6d33 cf3e 469e db3d 7f8e e43e 1c05 ecbe
000001d0: b37b b9be 89bb 1a3e b00e 8c3e 12d2 3a3e
000001e0: 1ae3 85bc b7a3 e13d 7686 ffbc 1129 06bd
000001f0: 3c4c d33e d2b5 fbbe 63f4 f63d f236 d7be

layers.4.running_var f4 [128]
0.23828575 0.13969244 0.20859662 0.20187058 0.050348267 0.39063606 0.05180538 0.22178978
0.18336226 0.09600182 0.12136937 0.31295672 0.09587445 0.20263676 0.57298636 0.14355747
0.06175612 0.042392854 0.098143406 0.3922555 0.3955686 0.05270686 0.12270538 0.42763782
0.088217966 0.051166784 0.14065704 0.35562572 0.057662994 0.26863092 0.19195373 0.27601612
0.06331053 0.045724113 0.08014964 0.23102786 0.14712936 0.12695962 0.18834098 0.0763736
0.1277583 0.35461402 0.055155642 0.24151829 0.23242886 0.16788132 0.21056266 0.29347372
0.07916071 0.09397274 0.055421375 0.0723087 0.16360877 0.30412683 0.12298439 0.26180136
0.100851074 0.037993804 0.1527838 0.29377967 0.094721556 0.22398709 0.083682954 0.12961666
0.04706243 0.14640374 0.36178967 0.038750138 0.23733482 0.3540607 0.31217575 0.05105154
0.25336844 0.106119 0.0847006 0.21197587 0.040969655 0.21974926 0.13954856 0.40666935
0.2377943 0.30025727 0.097915255 0.5654734 0.23015039 0.06789317 0.27268234 0.55913544
0.12325576 0.13605677 0.19555363 0.117702365 0.11815617 0.31084958 0.08948773 0.30721676
0.069568336 0.048352133 0.0634444 0.14234857 0.043368753 0.2714589 0.038743746 0.15825155
0.033655897 0.20780802 0.16684742 0.23090772 0.13324635 0.29432052 0.16702375 0.15531474
0.1027116 0.11600185 0.52736545 0.39312458 0.1897793 0.12774643 0.12945876 0.093344375
0.05762759 0.05004927 0.088376395 0.0806228 0.05466298 0.48675245 0.2953245 0.3056038
00000000: 2e01 743e 890b 0f3e 5a9a 553e 29b7 4e3e
00000010: fc39 4e3d 7301 c83e e131 543d dc1c 633e
00000020: 51c3 3b3e 9a9c c43d 8190 f83d dd3b a03e
00000030: d359 c43d 0380 4f3e 3caf 123f bb00 133e
00000040: fcf3 7c3d 21a4 2d3d 69ff c83d b7d5 c83e
00000050: f887 ca3e 26e3 573d f54c fb3d 58f3 da3e
00000060: 9fab b43d 4394 513d 6608 103e 9314 b63e
00000070: 0830 6c3d fe89 893e 858f 443e fc51 8d3e
00000080: f3a8 813d 3549 3b3d 7f25 a43d 9192 6c3e
00000090: 14a9 163e b401 023e 75dc 403e c369 9c3d
000000a0: 12d3 023e f88f b53e e2ea 613d 9250 773e
000000b0: d501 6e3e 15e9 2b3e bd9d 573e 3042 963e
000000c0: 031f a23d c874 c03d 8601 633d 9516 943d
000000d0: 0f89 273e 83b6 9b3e 3ddf fb3d d40a 863e
000000e0: 028b ce3d 649f 1b3d 5b73 1c3e 4a6a 963e
000000f0: 60fd c13d df5c 653e f861 ab3d 3bba 043e
00000100: 89c4 403d ddea 153e 7f3c b93e 77b8 1e3d
00000110: e607 733e 7247 b53e 80d5 9f3e 6b1b 513d
00000120: 82b9 813e eb54 d93d 8277 ad3d 3410 593e
00000130: cccf 273d f305 613e d1e5 0e3e f736 d03e
00000140: 5980 733e 52bb 993e cb87 c83d ddc2 103f
00000150: 8bac 6b3e 930b 8b3d 059d 8b3e 8023 0f3f
00000160: 846d fc3d 7752 0b3e 363f 483e f00d f13d
00000170: ddfb f13d ad27 9f3e 5845 b73d 844b 9d3e
00000180: d879 8e3d e30c 463d 23ef 813d d3c3 113e
00000190: 6fa3 313d a9fc 8a3e c3b1 1e3d b20c 223e
000001a0: c4da 093d a0cb 543e 0dda 2a3e 1373 6c3e
000001b0: bb71 083e 2eb1 963e 4608 2b3e d40a 1f3e
000001c0: 765a d23d 6192 ed3d 6c01 073f a047 c93e
000001d0: 8155 423e f6cf 023e d690 043e 562b bf3d
000001e0: e80a 6c3d 7700 4d3d affe b43d 911d a53d
000001f0: 4ae6 5f3d 9e37 f93e c634 973e 1a78 9c3e

layers.7.weight f4 [30, 128]
0.009581142 0.008873223 -0.046654403 -0.09511285 0.04380643 0.059863355 -0.039377768 -0.043635402
-0.072268754 0.024451798 0.066123776 0.034825463 -0.022359688 -0.016795892 -0.040445905 0.056337994
-0.03208132 0.031368364 0.018112905 0.05400469 -0.008226745 0.013526887 0.007825307 -0.029836971
-0.027820293 -0.024757115 0.049723208 -0.09619283 0.007393073 0.07904167 0.01415597 0.019208435
0.00410958 -0.0059359116 -0.006577935 -0.02263921 -0.076200224 -0.07110276 -0.032153197 -0.006725433
-0.006067138 0.09775557 0.041440886 -0.103377104 -0.007683257 -0.05698319 -0.07811374 0.08063049
0.047517873 -0.035356723 -0.050032727 0.084412426 0.037837036 0.007041584 -0.0029373844 0.0077801314
0.028408809 0.032652833 -0.0059912447 -0.05574148 -0.038928844 0.0040748967 0.078033075 -0.053130284
-0.061835114 0.008677483 -0.11921628 0.104014054 -0.08098656 0.07130499 -0.03491635 0.022814143
-0.038045455 -0.11149969 -0.06357475 -0.056166716 0.020447157 -0.03708032 -0.11434383 0.051870786
-0.12707989 0.036637686 0.051037088 -0.05904118 0.06787839 -0.0225056 -0.027500924 0.014149891
-0.011392634 0.071127556 -0.06077105 -0.0525479 0.05563326 -0.034153704 0.012041719 0.05862876
0.049335748 0.0017633158 -0.025562955 0.019160807 -0.08742326 0.09398868 0.00864726 -0.019830052
-0.047770996 0.032599848 -0.1071379 0.0700468 -0.09621333 -0.086882904 -0.007063118 -0.016694319
0.05781229 -0.036017284 -0.09083412 0.06275871 -0.0038088136 0.045416858 0.037965093 0.06166292
-0.12317338 0.030475983 0.0072263624 0.04229511 -0.018752595 -0.038742304 -0.036030117 0.025129113
-0.029475536 -0.024704726 -0.0028000341 -0.14713055 0.08423353 0.05307327 0.07677254 -0.1637599
0.013989351 0.054784052 -0.05161109 -0.081186116 -0.10571953 -0.047895744 0.070994385 -0.03287966
-0.04684072 0.07192665 0.013810458 0.038207795 0.037557572 0.01296382 0.074248865 0.04794117
0.040280458 0.023583679 0.068520635 0.044792183 -0.060517374 0.040873427 -0.026674218 -0.006628219
0.044432037 -0.009126518 0.03608717 -0.039109208 -0.06425012 0.0074338997 -0.03676523 0.025724247
0.016232874 0.0801715 -0.028333932 -0.15587343 0.013476742 0.018376611 -0.06096265 -0.027335677
0.02224038 0.014519778 0.042195518 0.056046877 0.087658 0.027613109 -0.043482088 0.08029526
-0.08335422 0.020464176 -0.048500996 -0.11004309 0.033086814 0.0062722038 0.06423855 0.008718038
-0.08493331 -0.0233497 0.0043519065 0.010383848 -0.04631559 -0.06785152 0.03243189 -0.097924545
0.025798514 0.01975865 -0.016764976 -0.039657187 0.022715308 -0.034413103 -0.074944586 0.11032881
-0.035815418 0.025313973 -0.042394105 -0.030251332 0.020451786 0.0056617158 -0.030750504 -0.08972965
-0.0031750894 -0.016507894 -0.06813001 -0.115337625 -0.07224004 0.050327025 0.0325757 -0.007832811
0.0030042955 -0.08424486 -0.014938513 0.00863062 -0.08948953 -0.008617884 0.02842894 0.036699545
0.010255235 0.012756834 -0.034642123 0.011350174 -0.040453106 0.04161975 -0.069534846 -0.1524421
0.06129077 -0.019515332 -0.026618384 -0.0056757433 -0.08302904 -0.012930269 0.043868937 0.014882875
-0.13740547 -0.03499599 0.014703168 0.06686682 -0.09406235 0.0036011245 -0.04454203 0.015892843
00000000: 39fa 1c3c ff60 113c b018 3fbd 87ca c2bd
00000010: 5f6e 333d 4733 753d 954a 21bd 09bb 32bd
00000020: a401 94bd 234f c83c e76b 873d 25a5 0e3d
00000030: aa2b b7bc 8a97 89bc 9baa 25bd abc2 663d
00000040: b467 03bd 1d7c 003d 8461 943c 0634 5d3d
00000050: 78c9 06bc e09f 5d3c b735 003c aa6c f4bc
00000060: 62e7 e3bc 6fcf cabc 90aa 4b3d bf00 c5bd
00000070: 9741 f23b 99e0 a13d 71ee 673c 025b 9d3c
00000080: a8a9 863b 0982 c2bb b88b d7bb dd75 b9bc
00000090: dd0e 9cbd 539e 91bd 12b3 03bd 0561 dcbb
000000a0: d8ce c6bb 1334 c83d ebbd 293d 60b7 d3bd
000000b0: d5c3 fbbb 3567 69bd 19fa 9fbd 9921 a53d
000000c0: 1aa2 423d 36d2 10bd 1eef 4cbd 6ce0 ac3d
000000d0: 02fb 1a3d 16bd e63b 2281 40bb 79f0 fe3b
000000e0: 97b9 e83c fabe 053d 3452 c4bb 2e51 64bd
000000f0: da73 1fbd b686 853b cecf 9f3d 249f 59bd
00000100: d146 7dbd 002c 0e3c aa27 f4bd 5205 d53d
00000110: 48dc a5bd 5a08 923d 7204 0fbd bae4 ba3c
00000120: 8dd5 1bbd f359 e4bd 7b33 82bd 120f 66bd
00000130: cc80 a73c 89e1 17bd 192d eabd 7676 543d
00000140: 3b21 02be 6611 163d 440c 513d 2ad5 71bd
00000150: d303 8b3d aa5d b8bc 9e49 e1bc f2d4 673c
00000160: 2ca8 3abc 53ab 913d 11eb 78bd 773c 57bd
00000170: b4df 633d c1e4 0bbd a14a 453c b624 703d
00000180: 4814 4a3d 0f1f e73a 6769 d1bc 20f7 9c3c
00000190: f70a b3bd 237d c03d 3dad 0d3c a272 a2bc
000001a0: 85ab 43bd 6b87 053d 1e6b dbbd b274 8f3d
000001b0: 7f0b c5bd aaef b1bd ba71 e7bb 86c2 88bc
000001c0: 94cc 6c3d dc86 13bd 3d07 babd a387 803d
000001d0: 4a9d 79bb 0707 3a3d 4981 1b3d 4292 7c3d
000001e0: 5342 fcbd c5a8 f93c 1fcb ec3b a33d 2d3d
000001f0: 0b9f 99bc 40b0 1ebd 5194 13bd 92db cd3c
00000200: ae76 f1bc 9161 cabc c780 37bb 64a9 16be
00000210: a182 ac3d 5b63 593d ec3a 9d3d adb0 27be
00000220: 9733 653c 3e65 603d 2666 53bd e844 a6bd
00000230: 7b83 d8bd 542e 44bd 8165 913d d3ac 06bd
00000240: 0edc 3fbd 484e 933d 4245 623c c77f 1c3d
00000250: f8d5 193d 3466 543c ca0f 983d f65d 443d
00000260: 1ffd 243d 8f32 c13c 8c54 8c3d 0278 373d
00000270: 11e1 77bd e56a 273d e483 dabc 8831 d9bb
00000280: 5efe 353d 6487 15bc 24d0 133d fa30 20bd
00000290: 9195 83bd 1298 f33b 2397 16bd a8bb d23c
000002a0: cefa 843c f530 a43d 901c e8bc 499d 1fbe
000002b0: 8ecd 5c3c 8c8a 963c f9b3 79bd 12ef dfbc
000002c0: 7531 b63c 5de4 6d3c 35d5 2c3d 6991 653d
000002d0: 0a86 b33d e334 e23c 461a 32bd d771 a43d
000002e0: 9eb5 aabd 7da4 a73c fba8 46bd 465e e1bd
000002f0: 0a86 073d 0f87 cd3b 808f 833d 1ad6 0e3c
00000300: 84f1 adbd df47 bfbc 709a 8e3b 0421 2a3c
00000310: 6bb5 3dbd bdf5 8abd 4dd7 043d aa8c c8bd
00000320: 6857 d33c e4dc a13c b456 89bc 936f 22bd
00000330: 7415 ba3c c1f4 0cbd 8c7c 99bd 12f4 e13d
00000340: 30b3 12bd 405f cf3c 71a5 2dbd a4d1 f7bc
00000350: 818a a73c ea85 b93b 7be8 fbbc 2ec4 b7bd
00000360: 2915 50bb 903b 87bc bf87 8bbd 2236 ecbd
00000370: 96f2 93bd b623 4e3d 196e 053d 3155 00bc
00000380: b7e3 443b 9288 acbd aac0 74bc 7267 0d3c
00000390: 4946 b7bd 0632 0dbc cfe3 e83c 4352 163d
000003a0: 9305 283c 0a02 513c e6e4 0dbd 15f6 393c
000003b0: 28b2 25bd 7979 2a3d 4968 8ebd c819 1cbe
000003c0: 080c 7b3d 9ede 9fbc cc0e dabc 96fb b9bb
000003d0: 210b aabd 7bd9 53bc eaaf 333d 4dd7 733c
000003e0: 05b4 0cbe f557 0fbd 8ee5 703c 79f1 883d
000003f0: c3a3 c0bd d800 6c3b b471 36bd b531 823c

layers.7.bias f4 [30]
0.043118708 0.0052020396 0.009466511 -0.01416422 0.020764895 -0.027105447 0.07828433 -0.043346897
-0.06733353 -0.08365287 -0.07256006 0.064186916 -0.010548552 -0.07003197 -0.04935832 -0.0677027
0.055431362 -0.07331313 0.051295973 0.05316357 0.041706476 0.07470249 0.05622896 0.08489995
-0.025115443 -0.046102084 -0.063399464 0.005555971 0.047685757 0.08806903
00000000: 3e9d 303d df75 aa3b 6d19 1b3c 0b11 68bc
00000010: 241b aa3c 3e0c debc 8953 a03d 848c 31bd
00000020: 29e6 89bd 3252 abbd 5e9a 94bd 6e74 833d
00000030: d5d3 2cbc ec6c 8fbd f32b 4abd b7a7 8abd
00000040: ff0b 633d 3225 96bd ba1b 523d 0bc2 593d
00000050: 69d4 2a3d 9efd 983d 5750 663d 06e0 ad3d
00000060: e7be cdbc 8ad5 3cbd 94d7 81bd dd0e b63b
00000070: 2452 433d 895d b43d

layers.8.weight f4 [30]
1.0209018 1.0136901 0.90140206 0.93494827 0.9365316 1.0512178 1.0379788 0.99162996
1.0066954 0.99785507 0.94852996 0.9715131 1.0020255 1.0404248 0.98075783 1.0117218
0.94899356 0.9587172 0.9528539 0.93296427 1.0016551 0.9807161 1.0338191 0.92440647
1.0340593 1.0476261 0.9690223 1.100305 1.0069402 1.0279881
00000000: e9ac 823f 99c0 813f 49c2 663f c558 6f3f
00000010: 89c0 6f3f 4e8e 863f 7ddc 843f 76db 7d3f
00000020: 65db 803f 6e73 7f3f dcd2 723f 15b5 783f
00000030: 5f42 803f a42c 853f f212 7b3f 1a80 813f
00000040: 3ef1 723f 7e6e 753f 3cee 733f bfd6 6e3f
00000050: 3c36 803f 3610 7b3f 2f54 843f e7a5 6c3f
00000060: 0e5c 843f 9d18 863f d811 783f cbd6 8c3f
00000070: 6be3 803f 1d95 833f

layers.8.bias f4 [30]
0.025388276 0.05948268 -0.04724013 -0.054633487 -0.04320187 0.04307879 0.03543417 0.025447473
0.00932013 0.0019308205 -0.035689197 0.009227341 -0.04389894 0.04306711 0.0006147596 0.055673413
0.006377597 0.011592614 0.0065931776 -0.031309877 0.026807547 0.007608342 0.004347866 -0.04813352
0.058122672 0.06868201 0.021422438 0.06785803 0.014386251 0.07462813
00000000: 13fb cf3c 1ca4 733d de7e 41bd 5dc7 5fbd
00000010: 72f4 30bd 6373 303d 6c23 113d 3877 d03c
00000020: 75b3 183c 9613 fd3a d62e 12bd 462e 173c
00000030: 60cf 33bd 2367 303d d227 213a ce09 643d
00000040: 29fb d03b f3ee 3d3c 950b d83b c93e 00bd
00000050: 809b db3c 664f f93b 8b78 8e3b a727 45bd
00000060: 0a12 6e3d 27a9 8c3d 1c7e af3c 27f9 8a3d
00000070: 4fb4 6b3c a2d6 983d

layers.8.running_mean f4 [30]
-0.3732606 -0.5892595 -0.79739785 -0.38471445 -0.63680476 -0.70254177 -0.0057076006 -0.7248394
-0.14453351 -0.6421636 0.60013807 -0.79381794 0.6929999 -0.19619046 -0.24775219 -0.13929544
0.12221044 -0.35132602 -0.3123123 -0.32982397 -0.42787984 -0.0045224647 -0.6595134 -0.50647247
-0.91352564 0.15729187 -0.010647734 -0.38235104 0.07878935 0.071572796
00000000: 031c bfbe b6d9 16bf 4422 4cbf 4bf9 c4be
00000010: a305 23bf c7d9 33bf d306 bbbb 138f 39bf
00000020: 9800 14be d564 24bf a6a2 193f a737 4bbf
00000030: 7168 313f 27e6 48be c0b2 7dbe 77a3 0ebe
00000040: 7849 fa3d 01e1 b3be 66e7 9fbe b0de a8be
00000050: 1113 dbbe 2f31 94bb dfd5 28bf 2ea8 01bf
00000060: d1dc 69bf 1f11 213e d573 2ebc 84c3 c3be
00000070: 505c a13d c294 923d

layers.8.running_var f4 [30]
1.7166785 1.9455717 1.405072 1.3277881 1.5005794 1.34688 1.5222039 2.2214012
1.7045143 2.007843 1.0121402 1.6071956 1.2520307 1.4593359 1.4525763 2.5095458
1.5209852 1.2969619 1.7690979 1.3395627 2.7840395 1.6499133 1.6272732 2.3919692
1.8939583 1.7133381 1.6590452 1.7809899 1.5392699 2.115243
00000000: 1fbc db3f 7e08 f93f 66d9 b33f f6f4 a93f
00000010: fc12 c03f 9066 ac3f 94d7 c23f 702b 0e40
00000020: 862d da3f 8080 0040 cf8d 813f 96b8 cd3f
00000030: 8b42 a03f 85cb ba3f 05ee b93f 669c 2040
00000040: a5af c23f d902 a63f cd71 e23f ca76 ab3f
00000050: b42d 3240 5c30 d33f 7d4a d03f 0616 1940
00000060: 3a6d f23f aa4e db3f 985b d43f 7af7 e33f
00000070: cc06 c53f 2460 0740

layers.10.weight f4 [64, 30]
-0.047051735 0.12897763 -0.05188279 0.043183487 -0.12326054 0.03195694 -0.087956555 -0.14554554
0.049432147 0.10666829 0.033929035 0.15111849 0.13715841 0.21704774 0.15133812 0.06979092
-0.15144907 0.15689114 -0.110919245 0.09893574 -0.06236882 0.15739554 0.103596576 -0.1560553
-0.058734637 0.09149991 -0.036603924 0.24074656 0.16843538 0.007489398 -0.013794406 0.055936273
0.031563174 0.042414594 0.07591441 0.03823381 -0.101998344 0.00080823275 -0.19025524 0.05462669
0.07681269 0.19272667 -0.2216236 -0.10180472 -0.01615093 -0.07307476 -0.03173485 -0.009311671
-0.0030745997 -0.0006193497 -0.04075813 -0.06426247 0.044220153 0.15878677 0.031761475 -0.015277279
-0.051023383 -0.14533061 -0.07864453 0.038522337 0.13174957 0.041627012 -0.010359885 0.1760611
0.061573252 0.21033159 0.01549888 0.06371803 -0.042009853 0.14638804 0.065657355 0.09670174
0.08259361 0.14685312 0.04452619 -0.031933665 -0.082788125 -0.11714525 0.041058376 -0.14435144
0.042525727 0.007807096 0.21514957 0.13858747 0.18576817 -0.1804874 0.0037986983 0.094030306
-0.013864077 -0.0006424344 -0.06365209 0.029914184 -0.08103939 0.084525704 0.13490005 -0.032982614
0.12988877 0.05465586 0.04486675 -0.1766365 -0.040298842 0.0176998 -0.1275014 -0.124144666
0.0029163521 -0.20050797 -0.112591885 0.16351853 -0.05864365 0.15822616 -0.09109568 0.20447455
-0.0023698253 0.10779952 -0.11041304 -0.15257466 -0.17310284 -0.04681968 -0.08093783 0.040895738
0.07170775 0.0734171 0.01129323 -0.09444953 -0.1340777 -0.08058812 -0.033439178 0.08131929
-0.1459323 -0.04401447 0.055951815 -0.024326429 -0.073740825 -0.13360652 0.1228415 0.0012685049
-0.13244854 0.0735456 0.00059517514 0.13281108 0.18440719 -0.16724749 0.16650574 0.15138167
0.030342838 -0.17577524 0.06213894 -0.09669025 -0.13433045 -0.12453005 0.15907249 0.08923064
0.030373152 -0.08730826 0.18089902 0.010364357 -0.06791202 0.101530336 -0.03997807 0.11674027
-0.16900466 0.07010221 0.122584924 -0.07376802 0.08796839 -0.034968138 -0.15865254 -0.16923176
-0.056797564 -0.09442426 0.08203793 -0.15278669 -0.11701564 -0.06271377 0.15528227 -0.1347373
0.0027643344 -0.09432298 0.015025225 -0.16730072 -0.1643352 -0.17446722 0.023506884 -0.06499933
-0.043605242 0.07617244 0.08329756 -0.105603345 0.15807714 0.10314321 -0.0019893493 0.0035542727
-0.012011156 0.26078108 0.0057523474 0.11425455 -0.15191238 0.10124815 -0.13794775 0.097798
-0.027035479 -0.09022339 0.050269723 0.08973045 -0.03460763 -0.08965922 -0.07308238 0.096678644
-0.08230527 -0.020225849 0.011403071 0.06542425 0.1959071 0.10573163 -0.04476344 0.08326796
0.095565535 0.15046273 -0.09868703 0.17448822 0.0018418318 -0.052852347 0.011158989 0.018707905
0.04643347 0.18574713 -0.01154895 -0.19495112 0.20419616 -0.12864403 -0.09287054 -0.21063899
0.08424817 0.025832541 -0.0986529 0.07680348 -0.12907846 -0.1729198 -0.07933584 -0.012522909
0.011122306 -0.04965613 0.15095487 0.020812612 -0.060908813 0.23198347 -0.07884245 -0.062494837
0.05999623 0.08233163 0.114468165 0.12353833 0.111964084 0.04791103 -0.038944233 0.10486673
00000000: 52b9 40bd b612 043e 0c83 54bd 2be1 303d
00000010: 0670 fcbd 48e5 023d 9122 b4bd e409 15be
00000020: 5d79 4a3d e874 da3d 2cf9 0a3d cebe 1a3e
00000030: 4173 0c3e c341 5e3e 61f8 1a3e 8bee 8e3d
00000040: 7715 1bbe 12a8 203e a129 e3bd d29e ca3d
00000050: 7376 7fbd 4c2c 213e 712a d43d f6cc 1fbe
00000060: bb93 70bd 4e64 bb3d ffed 15bd 4486 763e
00000070: 537a 2c3e a069 f53b ef01 62bc 6f1d 653d
00000080: 6348 013d edba 2d3d 0479 9b3d 0e9b 1c3d
00000090: 82e4 d0bd 95df 533a 45d2 42be 3cc0 5f3d
000000a0: f94f 9d3d 245a 453e 4cf1 62be fe7e d0bd
000000b0: f54e 84bc 38a8 95bd 67fc 01bd fb8f 18bc
000000c0: 397f 49bb db5b 22ba fff1 26bd 0b9c 83bd
000000d0: 3120 353d 0099 223e 5218 023d 8d4d 7abc
000000e0: e5fd 50bd 8cd1 14be 6210 a1bd 99c9 1d3d
000000f0: 5ce9 063e 1681 2a3d 82bc 29bc 5c49 343e
00000100: 3c34 7c3d 2a61 573e 04ef 7d3c 997e 823d
00000110: 8612 2cbd bfe6 153e 5d77 863d 900b c63d
00000120: d726 a93d aa60 163e 1861 363d e0cc 02bd
00000130: d28c a9bd d9e9 efbd d42c 283d ddd0 13be
00000140: 752f 2e3d abd2 ff3b 2b50 5c3e e0e9 0d3e
00000150: 033a 3e3e b0d1 38be 95f3 783b f692 c03d
00000160: 2726 63bc 0b69 28ba 075c 82bd 970e f53c
00000170: fbf7 a5bd d01b ad3d 3d23 0a3e c718 07bd
00000180: 9001 053e d3de 5f3d 32c6 373d 33e0 34be
00000190: 6610 25bd 2cff 903c ba8f 02be 8f3f febd
000001a0: 4520 3f3b f651 4dbe 9396 e6bd 6771 273e
000001b0: 5334 70bd 0a06 223e 5f90 babd c761 513e
000001c0: 124f 1bbb ffc5 dc3d 3b20 e2bd 883c 1cbe
000001d0: df41 31be fec5 3fbd bcc2 a5bd 4a82 273d
000001e0: 83db 923d b45b 963d 3d07 393c c16e c1bd
000001f0: aa4b 09be 620b a5bd 85f7 08bd ba8a a63d
00000200: 476f 15be 8448 34bd bb2d 653d 3848 c7bc
00000210: 6e05 97bd 26d0 08be 5394 fb3d f643 a63a
00000220: 97a0 07be 139f 963d 8705 1c3a a1ff 073e
00000230: 3dd5 3c3e ed42 2bbe 7b80 2a3e cc03 1b3e
00000240: 8b91 f83c 6dfe 33be 6785 7e3d 8a05 c6bd
00000250: ec8d 09be 9c09 ffbd e6e3 223e 8ebe b63d
00000260: 1ed1 f83c acce b2bd 983d 393e 44cf 293c
00000270: 7515 8bbd 23ef cf3d 0bc0 23bd 8615 ef3d
00000280: 8f0f 2dbe bf91 8f3d ce0d fb3d b013 97bd
00000290: c528 b43d c03a 0fbd d075 22be 174b 2dbe
000002a0: 90a4 68bd 8261 c1bd 8103 a83d 1d74 1cbe
000002b0: e5a5 efbd 1470 80bd 5102 1f3e 93f8 09be
000002c0: d629 353b 682c c1bd 5c2c 763c e150 2bbe
000002d0: 7d47 28be 89a7 32be 8291 c03c 5e1e 85bd
000002e0: 699b 32bd 4c00 9c3d e997 aa3d 9146 d8bd
000002f0: f9de 213e bf3c d33d be5f 02bb cdee 683b
00000300: 71ca 44bc 1985 853e 307e bc3b 4afe e93d
00000310: eb8e 1bbe 315b cf3d 2d42 0dbe 514a c83d
00000320: 8279 ddbc 0ac7 b8bd a0e7 4d3d 99c4 b73d
00000330: bbc0 0dbd 419f b7bd 37ac 95bd 74ff c53d
00000340: aa8f a8bd aeb0 a5bc f2d3 3a3c 26fd 853d
00000350: df9b 483e d389 d83d de59 37bd 6488 aa3d
00000360: ddb7 c33d e712 1a3e 6d1c cabd 0aad 323e
00000370: 9f69 f13a b47b 58bd 31d4 363c 5241 993c
00000380: 0631 3e3d 7f34 3e3e cf37 3dbc 44a1 47be
00000390: cc18 513e 43bb 03be e932 bebd bfb1 57be
000003a0: 4e8a ac3d c49e d33c 880a cabd 254b 9d3d
000003b0: 252d 04be e311 31be d47a a2bd e32c 4dbc
000003c0: 553a 363c 3a64 4bbd ea93 1a3e 367f aa3c
000003d0: 857b 79bd 138d 6d3e 2778 a1bd 96fa 7fbd
000003e0: 9bbe 753d 7c9d a83d 496e ea3d aa01 fd3d
000003f0: 6d4d e53d 5b3e 443d fd83 1fbd 5ec4 d63d

layers.10.bias f4 [64]
-0.034273136 0.05426292 0.15671836 -0.044257667 0.11539406 0.040933512 -0.16191757 -0.014495275
-0.04676428 -0.017055355 -0.008122224 -0.13619433 0.09142017 -0.12014853 -0.09015038 0.17626755
0.03869802 -0.015983807 0.0909147 0.17783733 -0.09279449 -0.16794321 -0.027124323 -0.11249007
-0.171186 -0.06057403 -0.04388546 -0.0013495269 0.08048652 0.12358928 -0.04505905 -0.057083476
-0.111312136 0.13078342 0.0681595 -0.024088487 0.10826619 0.14732794 -0.06063045 0.13609679
-0.06206173 -0.034546524 -0.10079266 0.12279156 -0.16923149 0.09623202 -0.15549694 0.07874875
0.05770672 -0.025553117 0.09639182 -0.14414035 -0.011256813 -0.012642931 0.13733691 -0.060147632
-0.18023698 0.03656182 -0.1687463 0.06359927 0.06472847 0.027707556 0.17175293 -0.09077022
00000000: fd61 0cbd cc42 5e3d c77a 203e 8747 35bd
00000010: b953 ec3d e6a9 273d b8cd 25be 977d 6dbc
00000020: e78b 3fbd acb7 8bbc 1413 05bc 8776 0bbe
00000030: 803a bb3d 6f10 f6bd c3a0 b8bd 7b7f 343e
00000040: d181 1e3d 79f0 82bc 7c31 ba3d fd1a 363e
00000050: 0a0b bebd 4ef9 2bbe d433 debc 3261 e6bd
00000060: 624b 2fbe 791c 78bd 3dc1 33bd 9ce2 b0ba
00000070: 1ed6 a43d 601c fd3d d78f 38bd 5dd0 69bd
00000080: 9ef7 e3bd 17ec 053e 3597 8b3d 3855 c5bc
00000090: aaba dd3d 23dd 163e a257 78bd f55c 0b3e
000000a0: 7134 7ebd a880 0dbd 626c cebd 247a fb3d
000000b0: 054b 2dbe 4b15 c53d 973a 1fbe 0647 a13d
000000c0: e25d 6c3d c554 d1bc 1369 c53d 8799 13be
000000d0: 7f6e 38bc 4c24 4fbc 0ca2 0c3e 5d5d 76bd
000000e0: 0b90 38be d9c1 153d d4cb 2cbe 5640 823d
000000f0: 5c90 843d f5fa e23c 00e0 2f3e bde5 b9bd
